…
I0903 13:08:19.054379 18776 net.cpp:294] The NetState phase (0) differed from the phase (1) specified by a rule in layer accuracy
I0903 13:08:19.054586 18776 net.cpp:51] Initializing net from parameters: 
name: "CaffeNet"
state {
  phase: TRAIN
  level: 0
  stage: ""
}
layer {
  name: "data"
  type: "Data"
  top: "data"
  top: "label"
  include {
    phase: TRAIN
  }
  transform_param {
    mirror: true
    crop_size: 70
    mean_file: "input/mean.binaryproto"
  }
  data_param {
    source: "input/train_lmdb"
    batch_size: 64
    backend: LMDB
  }
}
layer {
  name: "conv1"
  type: "Convolution"
  bottom: "data"
  top: "conv1"
  param {
    lr_mult: 1
    decay_mult: 1
  }
  param {
    lr_mult: 2
    decay_mult: 0
  }
  convolution_param {
    num_output: 96
    kernel_size: 11
    stride: 4
    weight_filler {
      type: "gaussian"
      std: 0.01
    }
    bias_filler {
      type: "constant"
      value: 0
    }
  }
}
layer {
  name: "relu1"
  type: "ReLU"
  bottom: "conv1"
  top: "conv1"
}
layer {
  name: "pool1"
  type: "Pooling"
  bottom: "conv1"
  top: "pool1"
  pooling_param {
    pool: MAX
    kernel_size: 3
    stride: 2
  }
}
layer {
  name: "norm1"
  type: "LRN"
  bottom: "pool1"
  top: "norm1"
  lrn_param {
    local_size: 5
    alpha: 0.0001
    beta: 0.75
  }
}
layer {
  name: "conv2"
  type: "Convolution"
  bottom: "norm1"
  top: "conv2"
  param {
    lr_mult: 1
    decay_mult: 1
  }
  param {
    lr_mult: 2
    decay_mult: 0
  }
  convolution_param {
    num_output: 256
    pad: 2
    kernel_size: 5
    group: 2
    weight_filler {
      type: "gaussian"
      std: 0.01
    }
    bias_filler {
      type: "constant"
      value: 1
    }
  }
}
layer {
  name: "relu2"
  type: "ReLU"
  bottom: "conv2"
  top: "conv2"
}
layer {
  name: "pool2"
  type: "Pooling"
  bottom: "conv2"
  top: "pool2"
  pooling_param {
    pool: MAX
    kernel_size: 3
    stride: 2
  }
}
layer {
  name: "norm2"
  type: "LRN"
  bottom: "pool2"
  top: "norm2"
  lrn_param {
    local_size: 5
    alpha: 0.0001
    beta: 0.75
  }
}
layer {
  name: "conv3"
  type: "Convolution"
  bottom: "norm2"
  top: "conv3"
  param {
    lr_mult: 1
    decay_mult: 1
  }
  param {
    lr_mult: 2
    decay_mult: 0
  }
  convolution_param {
    num_output: 384
    pad: 1
    kernel_size: 3
    weight_filler {
      type: "gaussian"
      std: 0.01
    }
    bias_filler {
      type: "constant"
      value: 0
    }
  }
}
layer {
  name: "relu3"
  type: "ReLU"
  bottom: "conv3"
  top: "conv3"
}
layer {
  name: "conv4"
  type: "Convolution"
  bottom: "conv3"
  top: "conv4"
  param {
    lr_mult: 1
    decay_mult: 1
  }
  param {
    lr_mult: 2
    decay_mult: 0
  }
  convolution_param {
    num_output: 384
    pad: 1
    kernel_size: 3
    group: 2
    weight_filler {
      type: "gaussian"
      std: 0.01
    }
    bias_filler {
      type: "constant"
      value: 1
    }
  }
}
layer {
  name: "relu4"
  type: "ReLU"
  bottom: "conv4"
  top: "conv4"
}
layer {
  name: "conv5"
  type: "Convolution"
  bottom: "conv4"
  top: "conv5"
  param {
    lr_mult: 1
    decay_mult: 1
  }
  param {
    lr_mult: 2
    decay_mult: 0
  }
  convolution_param {
    num_output: 256
    pad: 1
    kernel_size: 3
    group: 2
    weight_filler {
      type: "gaussian"
      std: 0.01
    }
    bias_filler {
      type: "constant"
      value: 1
    }
  }
}
layer {
  name: "relu5"
  type: "ReLU"
  bottom: "conv5"
  top: "conv5"
}
layer {
  name: "pool5"
  type: "Pooling"
  bottom: "conv5"
  top: "pool5"
  pooling_param {
    pool: MAX
    kernel_size: 3
    stride: 2
  }
}
layer {
  name: "fc6"
  type: "InnerProduct"
  bottom: "pool5"
  top: "fc6"
  param {
    lr_mult: 1
    decay_mult: 1
  }
  param {
    lr_mult: 2
    decay_mult: 0
  }
  inner_product_param {
    num_output: 4096
    weight_filler {
      type: "gaussian"
      std: 0.005
    }
    bias_filler {
      type: "constant"
      value: 1
    }
  }
}
layer {
  name: "relu6"
  type: "ReLU"
  bottom: "fc6"
  top: "fc6"
}
layer {
  name: "drop6"
  type: "Dropout"
  bottom: "fc6"
  top: "fc6"
  dropout_param {
    dropout_ratio: 0.5
  }
}
layer {
  name: "fc7"
  type: "InnerProduct"
  bottom: "fc6"
  top: "fc7"
  param {
    lr_mult: 1
    decay_mult: 1
  }
  param {
    lr_mult: 2
    decay_mult: 0
  }
  inner_product_param {
    num_output: 4096
    weight_filler {
      type: "gaussian"
      std: 0.005
    }
    bias_filler {
      type: "constant"
      value: 1
    }
  }
}
layer {
  name: "relu7"
  type: "ReLU"
  bottom: "fc7"
  top: "fc7"
}
layer {
  name: "drop7"
  type: "Dropout"
  bottom: "fc7"
  top: "fc7"
  dropout_param {
    dropout_ratio: 0.5
  }
}
layer {
  name: "fc8"
  type: "InnerProduct"
  bottom: "fc7"
  top: "fc8"
  param {
    lr_mult: 1
    decay_mult: 1
  }
  param {
    lr_mult: 2
    decay_mult: 0
  }
  inner_product_param {
    num_output: 2
    weight_filler {
      type: "gaussian"
      std: 0.01
    }
    bias_filler {
      type: "constant"
      value: 0
    }
  }
}
layer {
  name: "loss"
  type: "SoftmaxWithLoss"
  bottom: "fc8"
  bottom: "label"
  top: "loss"
}
I0903 13:08:19.054711 18776 layer_factory.hpp:77] Creating layer data
I0903 13:08:19.054800 18776 db_lmdb.cpp:35] Opened lmdb input/train_lmdb
I0903 13:08:19.054811 18776 net.cpp:84] Creating Layer data
I0903 13:08:19.054836 18776 net.cpp:380] data -> data
I0903 13:08:19.054860 18776 net.cpp:380] data -> label
I0903 13:08:19.054865 18776 data_transformer.cpp:25] Loading mean file from: input/mean.binaryproto
I0903 13:08:19.056160 18776 data_layer.cpp:45] output data size: 64,3,70,70
I0903 13:08:19.063987 18776 net.cpp:122] Setting up data
I0903 13:08:19.064038 18776 net.cpp:129] Top shape: 64 3 70 70 (940800)
I0903 13:08:19.064041 18776 net.cpp:129] Top shape: 64 (64)
I0903 13:08:19.064043 18776 net.cpp:137] Memory required for data: 3763456
I0903 13:08:19.064047 18776 layer_factory.hpp:77] Creating layer conv1
I0903 13:08:19.064064 18776 net.cpp:84] Creating Layer conv1
I0903 13:08:19.064067 18776 net.cpp:406] conv1 <- data
I0903 13:08:19.064072 18776 net.cpp:380] conv1 -> conv1
I0903 13:08:19.065219 18776 net.cpp:122] Setting up conv1
I0903 13:08:19.065233 18776 net.cpp:129] Top shape: 64 96 15 15 (1382400)
I0903 13:08:19.065235 18776 net.cpp:137] Memory required for data: 9293056
I0903 13:08:19.065249 18776 layer_factory.hpp:77] Creating layer relu1
I0903 13:08:19.065259 18776 net.cpp:84] Creating Layer relu1
I0903 13:08:19.065265 18776 net.cpp:406] relu1 <- conv1
I0903 13:08:19.065269 18776 net.cpp:367] relu1 -> conv1 (in-place)
I0903 13:08:19.065276 18776 net.cpp:122] Setting up relu1
I0903 13:08:19.065282 18776 net.cpp:129] Top shape: 64 96 15 15 (1382400)
I0903 13:08:19.065285 18776 net.cpp:137] Memory required for data: 14822656
I0903 13:08:19.065289 18776 layer_factory.hpp:77] Creating layer pool1
I0903 13:08:19.065307 18776 net.cpp:84] Creating Layer pool1
I0903 13:08:19.065311 18776 net.cpp:406] pool1 <- conv1
I0903 13:08:19.065315 18776 net.cpp:380] pool1 -> pool1
I0903 13:08:19.065351 18776 net.cpp:122] Setting up pool1
I0903 13:08:19.065356 18776 net.cpp:129] Top shape: 64 96 7 7 (301056)
I0903 13:08:19.065358 18776 net.cpp:137] Memory required for data: 16026880
I0903 13:08:19.065361 18776 layer_factory.hpp:77] Creating layer norm1
I0903 13:08:19.065366 18776 net.cpp:84] Creating Layer norm1
I0903 13:08:19.065368 18776 net.cpp:406] norm1 <- pool1
I0903 13:08:19.065372 18776 net.cpp:380] norm1 -> norm1
I0903 13:08:19.065420 18776 net.cpp:122] Setting up norm1
I0903 13:08:19.065426 18776 net.cpp:129] Top shape: 64 96 7 7 (301056)
I0903 13:08:19.065428 18776 net.cpp:137] Memory required for data: 17231104
I0903 13:08:19.065431 18776 layer_factory.hpp:77] Creating layer conv2
I0903 13:08:19.065441 18776 net.cpp:84] Creating Layer conv2
I0903 13:08:19.065445 18776 net.cpp:406] conv2 <- norm1
I0903 13:08:19.065451 18776 net.cpp:380] conv2 -> conv2
I0903 13:08:19.068531 18776 net.cpp:122] Setting up conv2
I0903 13:08:19.068547 18776 net.cpp:129] Top shape: 64 256 7 7 (802816)
I0903 13:08:19.068550 18776 net.cpp:137] Memory required for data: 20442368
I0903 13:08:19.068557 18776 layer_factory.hpp:77] Creating layer relu2
I0903 13:08:19.068565 18776 net.cpp:84] Creating Layer relu2
I0903 13:08:19.068569 18776 net.cpp:406] relu2 <- conv2
I0903 13:08:19.068575 18776 net.cpp:367] relu2 -> conv2 (in-place)
I0903 13:08:19.068581 18776 net.cpp:122] Setting up relu2
I0903 13:08:19.068588 18776 net.cpp:129] Top shape: 64 256 7 7 (802816)
I0903 13:08:19.068591 18776 net.cpp:137] Memory required for data: 23653632
I0903 13:08:19.068594 18776 layer_factory.hpp:77] Creating layer pool2
I0903 13:08:19.068600 18776 net.cpp:84] Creating Layer pool2
I0903 13:08:19.068604 18776 net.cpp:406] pool2 <- conv2
I0903 13:08:19.068610 18776 net.cpp:380] pool2 -> pool2
I0903 13:08:19.068650 18776 net.cpp:122] Setting up pool2
I0903 13:08:19.068655 18776 net.cpp:129] Top shape: 64 256 3 3 (147456)
I0903 13:08:19.068658 18776 net.cpp:137] Memory required for data: 24243456
I0903 13:08:19.068660 18776 layer_factory.hpp:77] Creating layer norm2
I0903 13:08:19.068668 18776 net.cpp:84] Creating Layer norm2
I0903 13:08:19.068671 18776 net.cpp:406] norm2 <- pool2
I0903 13:08:19.068675 18776 net.cpp:380] norm2 -> norm2
I0903 13:08:19.068740 18776 net.cpp:122] Setting up norm2
I0903 13:08:19.068745 18776 net.cpp:129] Top shape: 64 256 3 3 (147456)
I0903 13:08:19.068760 18776 net.cpp:137] Memory required for data: 24833280
I0903 13:08:19.068764 18776 layer_factory.hpp:77] Creating layer conv3
I0903 13:08:19.068792 18776 net.cpp:84] Creating Layer conv3
I0903 13:08:19.068795 18776 net.cpp:406] conv3 <- norm2
I0903 13:08:19.068800 18776 net.cpp:380] conv3 -> conv3
I0903 13:08:19.076876 18776 net.cpp:122] Setting up conv3
I0903 13:08:19.076910 18776 net.cpp:129] Top shape: 64 384 3 3 (221184)
I0903 13:08:19.076913 18776 net.cpp:137] Memory required for data: 25718016
I0903 13:08:19.076921 18776 layer_factory.hpp:77] Creating layer relu3
I0903 13:08:19.076928 18776 net.cpp:84] Creating Layer relu3
I0903 13:08:19.076931 18776 net.cpp:406] relu3 <- conv3
I0903 13:08:19.076936 18776 net.cpp:367] relu3 -> conv3 (in-place)
I0903 13:08:19.076942 18776 net.cpp:122] Setting up relu3
I0903 13:08:19.076946 18776 net.cpp:129] Top shape: 64 384 3 3 (221184)
I0903 13:08:19.076948 18776 net.cpp:137] Memory required for data: 26602752
I0903 13:08:19.076951 18776 layer_factory.hpp:77] Creating layer conv4
I0903 13:08:19.076975 18776 net.cpp:84] Creating Layer conv4
I0903 13:08:19.076980 18776 net.cpp:406] conv4 <- conv3
I0903 13:08:19.076984 18776 net.cpp:380] conv4 -> conv4
I0903 13:08:19.084017 18776 net.cpp:122] Setting up conv4
I0903 13:08:19.084036 18776 net.cpp:129] Top shape: 64 384 3 3 (221184)
I0903 13:08:19.084060 18776 net.cpp:137] Memory required for data: 27487488
I0903 13:08:19.084069 18776 layer_factory.hpp:77] Creating layer relu4
I0903 13:08:19.084089 18776 net.cpp:84] Creating Layer relu4
I0903 13:08:19.084132 18776 net.cpp:406] relu4 <- conv4
I0903 13:08:19.084149 18776 net.cpp:367] relu4 -> conv4 (in-place)
I0903 13:08:19.084161 18776 net.cpp:122] Setting up relu4
I0903 13:08:19.084167 18776 net.cpp:129] Top shape: 64 384 3 3 (221184)
I0903 13:08:19.084170 18776 net.cpp:137] Memory required for data: 28372224
I0903 13:08:19.084190 18776 layer_factory.hpp:77] Creating layer conv5
I0903 13:08:19.084209 18776 net.cpp:84] Creating Layer conv5
I0903 13:08:19.084213 18776 net.cpp:406] conv5 <- conv4
I0903 13:08:19.084218 18776 net.cpp:380] conv5 -> conv5
I0903 13:08:19.088317 18776 net.cpp:122] Setting up conv5
I0903 13:08:19.088332 18776 net.cpp:129] Top shape: 64 256 3 3 (147456)
I0903 13:08:19.088335 18776 net.cpp:137] Memory required for data: 28962048
I0903 13:08:19.088361 18776 layer_factory.hpp:77] Creating layer relu5
I0903 13:08:19.088366 18776 net.cpp:84] Creating Layer relu5
I0903 13:08:19.088369 18776 net.cpp:406] relu5 <- conv5
I0903 13:08:19.088387 18776 net.cpp:367] relu5 -> conv5 (in-place)
I0903 13:08:19.088393 18776 net.cpp:122] Setting up relu5
I0903 13:08:19.088397 18776 net.cpp:129] Top shape: 64 256 3 3 (147456)
I0903 13:08:19.088399 18776 net.cpp:137] Memory required for data: 29551872
I0903 13:08:19.088402 18776 layer_factory.hpp:77] Creating layer pool5
I0903 13:08:19.088405 18776 net.cpp:84] Creating Layer pool5
I0903 13:08:19.088408 18776 net.cpp:406] pool5 <- conv5
I0903 13:08:19.088413 18776 net.cpp:380] pool5 -> pool5
I0903 13:08:19.088441 18776 net.cpp:122] Setting up pool5
I0903 13:08:19.088446 18776 net.cpp:129] Top shape: 64 256 1 1 (16384)
I0903 13:08:19.088449 18776 net.cpp:137] Memory required for data: 29617408
I0903 13:08:19.088451 18776 layer_factory.hpp:77] Creating layer fc6
I0903 13:08:19.088459 18776 net.cpp:84] Creating Layer fc6
I0903 13:08:19.088461 18776 net.cpp:406] fc6 <- pool5
I0903 13:08:19.088465 18776 net.cpp:380] fc6 -> fc6
I0903 13:08:19.099817 18776 net.cpp:122] Setting up fc6
I0903 13:08:19.099835 18776 net.cpp:129] Top shape: 64 4096 (262144)
I0903 13:08:19.099838 18776 net.cpp:137] Memory required for data: 30665984
I0903 13:08:19.099843 18776 layer_factory.hpp:77] Creating layer relu6
I0903 13:08:19.099849 18776 net.cpp:84] Creating Layer relu6
I0903 13:08:19.099853 18776 net.cpp:406] relu6 <- fc6
I0903 13:08:19.099856 18776 net.cpp:367] relu6 -> fc6 (in-place)
I0903 13:08:19.099861 18776 net.cpp:122] Setting up relu6
I0903 13:08:19.099865 18776 net.cpp:129] Top shape: 64 4096 (262144)
I0903 13:08:19.099867 18776 net.cpp:137] Memory required for data: 31714560
I0903 13:08:19.099869 18776 layer_factory.hpp:77] Creating layer drop6
I0903 13:08:19.099874 18776 net.cpp:84] Creating Layer drop6
I0903 13:08:19.099876 18776 net.cpp:406] drop6 <- fc6
I0903 13:08:19.099898 18776 net.cpp:367] drop6 -> fc6 (in-place)
I0903 13:08:19.099915 18776 net.cpp:122] Setting up drop6
I0903 13:08:19.099921 18776 net.cpp:129] Top shape: 64 4096 (262144)
I0903 13:08:19.099943 18776 net.cpp:137] Memory required for data: 32763136
I0903 13:08:19.099967 18776 layer_factory.hpp:77] Creating layer fc7
I0903 13:08:19.099974 18776 net.cpp:84] Creating Layer fc7
I0903 13:08:19.099995 18776 net.cpp:406] fc7 <- fc6
I0903 13:08:19.100003 18776 net.cpp:380] fc7 -> fc7
I0903 13:08:19.227694 18776 net.cpp:122] Setting up fc7
I0903 13:08:19.227728 18776 net.cpp:129] Top shape: 64 4096 (262144)
I0903 13:08:19.227731 18776 net.cpp:137] Memory required for data: 33811712
I0903 13:08:19.227737 18776 layer_factory.hpp:77] Creating layer relu7
I0903 13:08:19.227757 18776 net.cpp:84] Creating Layer relu7
I0903 13:08:19.227761 18776 net.cpp:406] relu7 <- fc7
I0903 13:08:19.227767 18776 net.cpp:367] relu7 -> fc7 (in-place)
I0903 13:08:19.227792 18776 net.cpp:122] Setting up relu7
I0903 13:08:19.227797 18776 net.cpp:129] Top shape: 64 4096 (262144)
I0903 13:08:19.227815 18776 net.cpp:137] Memory required for data: 34860288
I0903 13:08:19.227818 18776 layer_factory.hpp:77] Creating layer drop7
I0903 13:08:19.227824 18776 net.cpp:84] Creating Layer drop7
I0903 13:08:19.227828 18776 net.cpp:406] drop7 <- fc7
I0903 13:08:19.227833 18776 net.cpp:367] drop7 -> fc7 (in-place)
I0903 13:08:19.227854 18776 net.cpp:122] Setting up drop7
I0903 13:08:19.227859 18776 net.cpp:129] Top shape: 64 4096 (262144)
I0903 13:08:19.227861 18776 net.cpp:137] Memory required for data: 35908864
I0903 13:08:19.227864 18776 layer_factory.hpp:77] Creating layer fc8
I0903 13:08:19.227871 18776 net.cpp:84] Creating Layer fc8
I0903 13:08:19.227887 18776 net.cpp:406] fc8 <- fc7
I0903 13:08:19.227897 18776 net.cpp:380] fc8 -> fc8
I0903 13:08:19.228067 18776 net.cpp:122] Setting up fc8
I0903 13:08:19.228087 18776 net.cpp:129] Top shape: 64 2 (128)
I0903 13:08:19.228091 18776 net.cpp:137] Memory required for data: 35909376
I0903 13:08:19.228096 18776 layer_factory.hpp:77] Creating layer loss
I0903 13:08:19.228101 18776 net.cpp:84] Creating Layer loss
I0903 13:08:19.228104 18776 net.cpp:406] loss <- fc8
I0903 13:08:19.228121 18776 net.cpp:406] loss <- label
I0903 13:08:19.228127 18776 net.cpp:380] loss -> loss
I0903 13:08:19.228139 18776 layer_factory.hpp:77] Creating layer loss
…
I0903 13:08:19.228674 18776 solver.cpp:172] Creating test net (#0) specified by net file: caffe_models/caffe_model_1/caffenet_train_val_1.prototxt
I0903 13:08:19.228703 18776 net.cpp:294] The NetState phase (1) differed from the phase (0) specified by a rule in layer data
I0903 13:08:19.228811 18776 net.cpp:51] Initializing net from parameters: 
name: "CaffeNet"
state {
  phase: TEST
}
layer {
  name: "data"
  type: "Data"
  top: "data"
  top: "label"
  include {
    phase: TEST
  }
  transform_param {
    mirror: false
    crop_size: 70
    mean_file: "input/mean.binaryproto"
  }
  data_param {
    source: "input/validation_lmdb"
    batch_size: 100
    backend: LMDB
  }
}
layer {
  name: "conv1"
  type: "Convolution"
  bottom: "data"
  top: "conv1"
  param {
    lr_mult: 1
    decay_mult: 1
  }
  param {
    lr_mult: 2
    decay_mult: 0
  }
  convolution_param {
    num_output: 96
    kernel_size: 11
    stride: 4
    weight_filler {
      type: "gaussian"
      std: 0.01
    }
    bias_filler {
      type: "constant"
      value: 0
    }
  }
}
layer {
  name: "relu1"
  type: "ReLU"
  bottom: "conv1"
  top: "conv1"
}
layer {
  name: "pool1"
  type: "Pooling"
  bottom: "conv1"
  top: "pool1"
  pooling_param {
    pool: MAX
    kernel_size: 3
    stride: 2
  }
}
layer {
  name: "norm1"
  type: "LRN"
  bottom: "pool1"
  top: "norm1"
  lrn_param {
    local_size: 5
    alpha: 0.0001
    beta: 0.75
  }
}
layer {
  name: "conv2"
  type: "Convolution"
  bottom: "norm1"
  top: "conv2"
  param {
    lr_mult: 1
    decay_mult: 1
  }
  param {
    lr_mult: 2
    decay_mult: 0
  }
  convolution_param {
    num_output: 256
    pad: 2
    kernel_size: 5
    group: 2
    weight_filler {
      type: "gaussian"
      std: 0.01
    }
    bias_filler {
      type: "constant"
      value: 1
    }
  }
}
layer {
  name: "relu2"
  type: "ReLU"
  bottom: "conv2"
  top: "conv2"
}
layer {
  name: "pool2"
  type: "Pooling"
  bottom: "conv2"
  top: "pool2"
  pooling_param {
    pool: MAX
    kernel_size: 3
    stride: 2
  }
}
layer {
  name: "norm2"
  type: "LRN"
  bottom: "pool2"
  top: "norm2"
  lrn_param {
    local_size: 5
    alpha: 0.0001
    beta: 0.75
  }
}
layer {
  name: "conv3"
  type: "Convolution"
  bottom: "norm2"
  top: "conv3"
  param {
    lr_mult: 1
    decay_mult: 1
  }
  param {
    lr_mult: 2
    decay_mult: 0
  }
  convolution_param {
    num_output: 384
    pad: 1
    kernel_size: 3
    weight_filler {
      type: "gaussian"
      std: 0.01
    }
    bias_filler {
      type: "constant"
      value: 0
    }
  }
}
layer {
  name: "relu3"
  type: "ReLU"
  bottom: "conv3"
  top: "conv3"
}
layer {
  name: "conv4"
  type: "Convolution"
  bottom: "conv3"
  top: "conv4"
  param {
    lr_mult: 1
    decay_mult: 1
  }
  param {
    lr_mult: 2
    decay_mult: 0
  }
  convolution_param {
    num_output: 384
    pad: 1
    kernel_size: 3
    group: 2
    weight_filler {
      type: "gaussian"
      std: 0.01
    }
    bias_filler {
      type: "constant"
      value: 1
    }
  }
}
layer {
  name: "relu4"
  type: "ReLU"
  bottom: "conv4"
  top: "conv4"
}
layer {
  name: "conv5"
  type: "Convolution"
  bottom: "conv4"
  top: "conv5"
  param {
    lr_mult: 1
    decay_mult: 1
  }
  param {
    lr_mult: 2
    decay_mult: 0
  }
  convolution_param {
    num_output: 256
    pad: 1
    kernel_size: 3
    group: 2
    weight_filler {
      type: "gaussian"
      std: 0.01
    }
    bias_filler {
      type: "constant"
      value: 1
    }
  }
}
layer {
  name: "relu5"
  type: "ReLU"
  bottom: "conv5"
  top: "conv5"
}
layer {
  name: "pool5"
  type: "Pooling"
  bottom: "conv5"
  top: "pool5"
  pooling_param {
    pool: MAX
    kernel_size: 3
    stride: 2
  }
}
layer {
  name: "fc6"
  type: "InnerProduct"
  bottom: "pool5"
  top: "fc6"
  param {
    lr_mult: 1
    decay_mult: 1
  }
  param {
    lr_mult: 2
    decay_mult: 0
  }
  inner_product_param {
    num_output: 4096
    weight_filler {
      type: "gaussian"
      std: 0.005
    }
    bias_filler {
      type: "constant"
      value: 1
    }
  }
}
layer {
  name: "relu6"
  type: "ReLU"
  bottom: "fc6"
  top: "fc6"
}
layer {
  name: "drop6"
  type: "Dropout"
  bottom: "fc6"
  top: "fc6"
  dropout_param {
    dropout_ratio: 0.5
  }
}
layer {
  name: "fc7"
  type: "InnerProduct"
  bottom: "fc6"
  top: "fc7"
  param {
    lr_mult: 1
    decay_mult: 1
  }
  param {
    lr_mult: 2
    decay_mult: 0
  }
  inner_product_param {
    num_output: 4096
    weight_filler {
      type: "gaussian"
      std: 0.005
    }
    bias_filler {
      type: "constant"
      value: 1
    }
  }
}
layer {
  name: "relu7"
  type: "ReLU"
  bottom: "fc7"
  top: "fc7"
}
layer {
  name: "drop7"
  type: "Dropout"
  bottom: "fc7"
  top: "fc7"
  dropout_param {
    dropout_ratio: 0.5
  }
}
layer {
  name: "fc8"
  type: "InnerProduct"
  bottom: "fc7"
  top: "fc8"
  param {
    lr_mult: 1
    decay_mult: 1
  }
  param {
    lr_mult: 2
    decay_mult: 0
  }
  inner_product_param {
    num_output: 2
    weight_filler {
      type: "gaussian"
      std: 0.01
    }
    bias_filler {
      type: "constant"
      value: 0
    }
  }
}
layer {
  name: "accuracy"
  type: "Accuracy"
  bottom: "fc8"
  bottom: "label"
  top: "accuracy"
  include {
    phase: TEST
  }
}
layer {
  name: "loss"
  type: "SoftmaxWithLoss"
  bottom: "fc8"
  bottom: "label"
  top: "loss"
}
I0903 13:08:19.228978 18776 layer_factory.hpp:77] Creating layer data
I0903 13:08:19.246395 18776 db_lmdb.cpp:35] Opened lmdb input/validation_lmdb
I0903 13:08:19.246457 18776 net.cpp:84] Creating Layer data
I0903 13:08:19.246466 18776 net.cpp:380] data -> data
I0903 13:08:19.246495 18776 net.cpp:380] data -> label
I0903 13:08:19.246501 18776 data_transformer.cpp:25] Loading mean file from: input/mean.binaryproto
I0903 13:08:19.246886 18776 data_layer.cpp:45] output data size: 100,3,70,70
I0903 13:08:19.258961 18776 net.cpp:122] Setting up data
I0903 13:08:19.259021 18776 net.cpp:129] Top shape: 100 3 70 70 (1470000)
I0903 13:08:19.259025 18776 net.cpp:129] Top shape: 100 (100)
I0903 13:08:19.259042 18776 net.cpp:137] Memory required for data: 5880400
I0903 13:08:19.259047 18776 layer_factory.hpp:77] Creating layer label_data_1_split
I0903 13:08:19.259054 18776 net.cpp:84] Creating Layer label_data_1_split
I0903 13:08:19.259058 18776 net.cpp:406] label_data_1_split <- label
I0903 13:08:19.259065 18776 net.cpp:380] label_data_1_split -> label_data_1_split_0
I0903 13:08:19.259075 18776 net.cpp:380] label_data_1_split -> label_data_1_split_1
I0903 13:08:19.259220 18776 net.cpp:122] Setting up label_data_1_split
I0903 13:08:19.259230 18776 net.cpp:129] Top shape: 100 (100)
I0903 13:08:19.259234 18776 net.cpp:129] Top shape: 100 (100)
I0903 13:08:19.259236 18776 net.cpp:137] Memory required for data: 5881200
I0903 13:08:19.259258 18776 layer_factory.hpp:77] Creating layer conv1
I0903 13:08:19.259279 18776 net.cpp:84] Creating Layer conv1
I0903 13:08:19.259282 18776 net.cpp:406] conv1 <- data
I0903 13:08:19.259300 18776 net.cpp:380] conv1 -> conv1
I0903 13:08:19.259773 18776 net.cpp:122] Setting up conv1
I0903 13:08:19.259779 18776 net.cpp:129] Top shape: 100 96 15 15 (2160000)
I0903 13:08:19.259783 18776 net.cpp:137] Memory required for data: 14521200
I0903 13:08:19.259807 18776 layer_factory.hpp:77] Creating layer relu1
I0903 13:08:19.259812 18776 net.cpp:84] Creating Layer relu1
I0903 13:08:19.259814 18776 net.cpp:406] relu1 <- conv1
I0903 13:08:19.259819 18776 net.cpp:367] relu1 -> conv1 (in-place)
I0903 13:08:19.259822 18776 net.cpp:122] Setting up relu1
I0903 13:08:19.259826 18776 net.cpp:129] Top shape: 100 96 15 15 (2160000)
I0903 13:08:19.259829 18776 net.cpp:137] Memory required for data: 23161200
I0903 13:08:19.259830 18776 layer_factory.hpp:77] Creating layer pool1
I0903 13:08:19.259835 18776 net.cpp:84] Creating Layer pool1
I0903 13:08:19.259853 18776 net.cpp:406] pool1 <- conv1
I0903 13:08:19.259857 18776 net.cpp:380] pool1 -> pool1
I0903 13:08:19.259887 18776 net.cpp:122] Setting up pool1
I0903 13:08:19.259894 18776 net.cpp:129] Top shape: 100 96 7 7 (470400)
I0903 13:08:19.259896 18776 net.cpp:137] Memory required for data: 25042800
I0903 13:08:19.259898 18776 layer_factory.hpp:77] Creating layer norm1
I0903 13:08:19.259902 18776 net.cpp:84] Creating Layer norm1
I0903 13:08:19.259905 18776 net.cpp:406] norm1 <- pool1
I0903 13:08:19.259908 18776 net.cpp:380] norm1 -> norm1
I0903 13:08:19.259934 18776 net.cpp:122] Setting up norm1
I0903 13:08:19.259940 18776 net.cpp:129] Top shape: 100 96 7 7 (470400)
I0903 13:08:19.259946 18776 net.cpp:137] Memory required for data: 26924400
I0903 13:08:19.259949 18776 layer_factory.hpp:77] Creating layer conv2
I0903 13:08:19.259959 18776 net.cpp:84] Creating Layer conv2
I0903 13:08:19.259963 18776 net.cpp:406] conv2 <- norm1
I0903 13:08:19.259968 18776 net.cpp:380] conv2 -> conv2
I0903 13:08:19.265137 18776 net.cpp:122] Setting up conv2
I0903 13:08:19.265156 18776 net.cpp:129] Top shape: 100 256 7 7 (1254400)
I0903 13:08:19.265159 18776 net.cpp:137] Memory required for data: 31942000
I0903 13:08:19.265166 18776 layer_factory.hpp:77] Creating layer relu2
I0903 13:08:19.265173 18776 net.cpp:84] Creating Layer relu2
I0903 13:08:19.265177 18776 net.cpp:406] relu2 <- conv2
I0903 13:08:19.265202 18776 net.cpp:367] relu2 -> conv2 (in-place)
I0903 13:08:19.265208 18776 net.cpp:122] Setting up relu2
I0903 13:08:19.265211 18776 net.cpp:129] Top shape: 100 256 7 7 (1254400)
I0903 13:08:19.265228 18776 net.cpp:137] Memory required for data: 36959600
I0903 13:08:19.265230 18776 layer_factory.hpp:77] Creating layer pool2
I0903 13:08:19.265270 18776 net.cpp:84] Creating Layer pool2
I0903 13:08:19.265275 18776 net.cpp:406] pool2 <- conv2
I0903 13:08:19.265280 18776 net.cpp:380] pool2 -> pool2
I0903 13:08:19.265326 18776 net.cpp:122] Setting up pool2
I0903 13:08:19.265333 18776 net.cpp:129] Top shape: 100 256 3 3 (230400)
I0903 13:08:19.265336 18776 net.cpp:137] Memory required for data: 37881200
I0903 13:08:19.265352 18776 layer_factory.hpp:77] Creating layer norm2
I0903 13:08:19.265357 18776 net.cpp:84] Creating Layer norm2
I0903 13:08:19.265359 18776 net.cpp:406] norm2 <- pool2
I0903 13:08:19.265383 18776 net.cpp:380] norm2 -> norm2
I0903 13:08:19.265429 18776 net.cpp:122] Setting up norm2
I0903 13:08:19.265434 18776 net.cpp:129] Top shape: 100 256 3 3 (230400)
I0903 13:08:19.265436 18776 net.cpp:137] Memory required for data: 38802800
I0903 13:08:19.265439 18776 layer_factory.hpp:77] Creating layer conv3
I0903 13:08:19.265447 18776 net.cpp:84] Creating Layer conv3
I0903 13:08:19.265450 18776 net.cpp:406] conv3 <- norm2
I0903 13:08:19.265455 18776 net.cpp:380] conv3 -> conv3
I0903 13:08:19.273335 18776 net.cpp:122] Setting up conv3
I0903 13:08:19.273352 18776 net.cpp:129] Top shape: 100 384 3 3 (345600)
I0903 13:08:19.273355 18776 net.cpp:137] Memory required for data: 40185200
I0903 13:08:19.273362 18776 layer_factory.hpp:77] Creating layer relu3
I0903 13:08:19.273370 18776 net.cpp:84] Creating Layer relu3
I0903 13:08:19.273373 18776 net.cpp:406] relu3 <- conv3
I0903 13:08:19.273377 18776 net.cpp:367] relu3 -> conv3 (in-place)
I0903 13:08:19.273382 18776 net.cpp:122] Setting up relu3
I0903 13:08:19.273386 18776 net.cpp:129] Top shape: 100 384 3 3 (345600)
I0903 13:08:19.273388 18776 net.cpp:137] Memory required for data: 41567600
I0903 13:08:19.273391 18776 layer_factory.hpp:77] Creating layer conv4
I0903 13:08:19.273401 18776 net.cpp:84] Creating Layer conv4
I0903 13:08:19.273403 18776 net.cpp:406] conv4 <- conv3
I0903 13:08:19.273409 18776 net.cpp:380] conv4 -> conv4
I0903 13:08:19.281675 18776 net.cpp:122] Setting up conv4
I0903 13:08:19.281690 18776 net.cpp:129] Top shape: 100 384 3 3 (345600)
I0903 13:08:19.281693 18776 net.cpp:137] Memory required for data: 42950000
I0903 13:08:19.281698 18776 layer_factory.hpp:77] Creating layer relu4
I0903 13:08:19.281707 18776 net.cpp:84] Creating Layer relu4
I0903 13:08:19.281724 18776 net.cpp:406] relu4 <- conv4
I0903 13:08:19.281730 18776 net.cpp:367] relu4 -> conv4 (in-place)
I0903 13:08:19.281738 18776 net.cpp:122] Setting up relu4
I0903 13:08:19.281744 18776 net.cpp:129] Top shape: 100 384 3 3 (345600)
I0903 13:08:19.281749 18776 net.cpp:137] Memory required for data: 44332400
I0903 13:08:19.281752 18776 layer_factory.hpp:77] Creating layer conv5
I0903 13:08:19.281761 18776 net.cpp:84] Creating Layer conv5
I0903 13:08:19.281765 18776 net.cpp:406] conv5 <- conv4
I0903 13:08:19.281771 18776 net.cpp:380] conv5 -> conv5
I0903 13:08:19.285693 18776 net.cpp:122] Setting up conv5
I0903 13:08:19.285706 18776 net.cpp:129] Top shape: 100 256 3 3 (230400)
I0903 13:08:19.285707 18776 net.cpp:137] Memory required for data: 45254000
I0903 13:08:19.285732 18776 layer_factory.hpp:77] Creating layer relu5
I0903 13:08:19.285737 18776 net.cpp:84] Creating Layer relu5
I0903 13:08:19.285740 18776 net.cpp:406] relu5 <- conv5
I0903 13:08:19.285743 18776 net.cpp:367] relu5 -> conv5 (in-place)
I0903 13:08:19.285748 18776 net.cpp:122] Setting up relu5
I0903 13:08:19.285754 18776 net.cpp:129] Top shape: 100 256 3 3 (230400)
I0903 13:08:19.285771 18776 net.cpp:137] Memory required for data: 46175600
I0903 13:08:19.285774 18776 layer_factory.hpp:77] Creating layer pool5
I0903 13:08:19.285781 18776 net.cpp:84] Creating Layer pool5
I0903 13:08:19.285786 18776 net.cpp:406] pool5 <- conv5
I0903 13:08:19.285790 18776 net.cpp:380] pool5 -> pool5
I0903 13:08:19.285823 18776 net.cpp:122] Setting up pool5
I0903 13:08:19.285828 18776 net.cpp:129] Top shape: 100 256 1 1 (25600)
I0903 13:08:19.285830 18776 net.cpp:137] Memory required for data: 46278000
I0903 13:08:19.285832 18776 layer_factory.hpp:77] Creating layer fc6
I0903 13:08:19.285838 18776 net.cpp:84] Creating Layer fc6
I0903 13:08:19.285887 18776 net.cpp:406] fc6 <- pool5
I0903 13:08:19.285890 18776 net.cpp:380] fc6 -> fc6
I0903 13:08:19.296248 18776 net.cpp:122] Setting up fc6
I0903 13:08:19.296277 18776 net.cpp:129] Top shape: 100 4096 (409600)
I0903 13:08:19.296298 18776 net.cpp:137] Memory required for data: 47916400
I0903 13:08:19.296304 18776 layer_factory.hpp:77] Creating layer relu6
I0903 13:08:19.296332 18776 net.cpp:84] Creating Layer relu6
I0903 13:08:19.296335 18776 net.cpp:406] relu6 <- fc6
I0903 13:08:19.296341 18776 net.cpp:367] relu6 -> fc6 (in-place)
I0903 13:08:19.296349 18776 net.cpp:122] Setting up relu6
I0903 13:08:19.296371 18776 net.cpp:129] Top shape: 100 4096 (409600)
I0903 13:08:19.296375 18776 net.cpp:137] Memory required for data: 49554800
I0903 13:08:19.296378 18776 layer_factory.hpp:77] Creating layer drop6
I0903 13:08:19.296383 18776 net.cpp:84] Creating Layer drop6
I0903 13:08:19.296389 18776 net.cpp:406] drop6 <- fc6
I0903 13:08:19.296393 18776 net.cpp:367] drop6 -> fc6 (in-place)
I0903 13:08:19.296469 18776 net.cpp:122] Setting up drop6
I0903 13:08:19.296473 18776 net.cpp:129] Top shape: 100 4096 (409600)
I0903 13:08:19.296476 18776 net.cpp:137] Memory required for data: 51193200
I0903 13:08:19.296478 18776 layer_factory.hpp:77] Creating layer fc7
I0903 13:08:19.296501 18776 net.cpp:84] Creating Layer fc7
I0903 13:08:19.296504 18776 net.cpp:406] fc7 <- fc6
I0903 13:08:19.296507 18776 net.cpp:380] fc7 -> fc7
I0903 13:08:19.426048 18776 net.cpp:122] Setting up fc7
I0903 13:08:19.426090 18776 net.cpp:129] Top shape: 100 4096 (409600)
I0903 13:08:19.426093 18776 net.cpp:137] Memory required for data: 52831600
I0903 13:08:19.426100 18776 layer_factory.hpp:77] Creating layer relu7
I0903 13:08:19.426107 18776 net.cpp:84] Creating Layer relu7
I0903 13:08:19.426112 18776 net.cpp:406] relu7 <- fc7
I0903 13:08:19.426118 18776 net.cpp:367] relu7 -> fc7 (in-place)
I0903 13:08:19.426142 18776 net.cpp:122] Setting up relu7
I0903 13:08:19.426148 18776 net.cpp:129] Top shape: 100 4096 (409600)
I0903 13:08:19.426151 18776 net.cpp:137] Memory required for data: 54470000
I0903 13:08:19.426167 18776 layer_factory.hpp:77] Creating layer drop7
I0903 13:08:19.426173 18776 net.cpp:84] Creating Layer drop7
I0903 13:08:19.426192 18776 net.cpp:406] drop7 <- fc7
I0903 13:08:19.426195 18776 net.cpp:367] drop7 -> fc7 (in-place)
I0903 13:08:19.426295 18776 net.cpp:122] Setting up drop7
I0903 13:08:19.426300 18776 net.cpp:129] Top shape: 100 4096 (409600)
I0903 13:08:19.426302 18776 net.cpp:137] Memory required for data: 56108400
I0903 13:08:19.426322 18776 layer_factory.hpp:77] Creating layer fc8
I0903 13:08:19.426329 18776 net.cpp:84] Creating Layer fc8
I0903 13:08:19.426345 18776 net.cpp:406] fc8 <- fc7
I0903 13:08:19.426350 18776 net.cpp:380] fc8 -> fc8
I0903 13:08:19.426566 18776 net.cpp:122] Setting up fc8
I0903 13:08:19.426571 18776 net.cpp:129] Top shape: 100 2 (200)
I0903 13:08:19.426592 18776 net.cpp:137] Memory required for data: 56109200
I0903 13:08:19.426596 18776 layer_factory.hpp:77] Creating layer fc8_fc8_0_split
I0903 13:08:19.426600 18776 net.cpp:84] Creating Layer fc8_fc8_0_split
I0903 13:08:19.426602 18776 net.cpp:406] fc8_fc8_0_split <- fc8
I0903 13:08:19.426606 18776 net.cpp:380] fc8_fc8_0_split -> fc8_fc8_0_split_0
I0903 13:08:19.426630 18776 net.cpp:380] fc8_fc8_0_split -> fc8_fc8_0_split_1
I0903 13:08:19.426673 18776 net.cpp:122] Setting up fc8_fc8_0_split
I0903 13:08:19.426677 18776 net.cpp:129] Top shape: 100 2 (200)
I0903 13:08:19.426681 18776 net.cpp:129] Top shape: 100 2 (200)
I0903 13:08:19.426682 18776 net.cpp:137] Memory required for data: 56110800
I0903 13:08:19.426684 18776 layer_factory.hpp:77] Creating layer accuracy
I0903 13:08:19.426689 18776 net.cpp:84] Creating Layer accuracy
I0903 13:08:19.426692 18776 net.cpp:406] accuracy <- fc8_fc8_0_split_0
I0903 13:08:19.426695 18776 net.cpp:406] accuracy <- label_data_1_split_0
I0903 13:08:19.426699 18776 net.cpp:380] accuracy -> accuracy
…
