…
I1007 22:16:58.614447  4889 net.cpp:294] The NetState phase (0) differed from the phase (1) specified by a rule in layer accuracy
I1007 22:16:58.614609  4889 net.cpp:51] Initializing net from parameters: 
name: "CaffeNet"
state {
  phase: TRAIN
  level: 0
  stage: ""
}
layer {
  name: "data"
  type: "Data"
  top: "data"
  top: "label"
  include {
    phase: TRAIN
  }
  transform_param {
    mirror: true
    crop_size: 70
    mean_file: "input/UFPR04/mean.binaryproto"
  }
  data_param {
    source: "input/UFPR04/train_lmdb"
    batch_size: 64
    backend: LMDB
  }
}
layer {
  name: "conv1"
  type: "Convolution"
  bottom: "data"
  top: "conv1"
  param {
    lr_mult: 1
    decay_mult: 1
  }
  param {
    lr_mult: 2
    decay_mult: 0
  }
  convolution_param {
    num_output: 96
    kernel_size: 11
    stride: 4
    weight_filler {
      type: "gaussian"
      std: 0.01
    }
    bias_filler {
      type: "constant"
      value: 0
    }
  }
}
layer {
  name: "relu1"
  type: "ReLU"
  bottom: "conv1"
  top: "conv1"
}
layer {
  name: "pool1"
  type: "Pooling"
  bottom: "conv1"
  top: "pool1"
  pooling_param {
    pool: MAX
    kernel_size: 3
    stride: 2
  }
}
layer {
  name: "norm1"
  type: "LRN"
  bottom: "pool1"
  top: "norm1"
  lrn_param {
    local_size: 5
    alpha: 0.0001
    beta: 0.75
  }
}
layer {
  name: "conv2"
  type: "Convolution"
  bottom: "norm1"
  top: "conv2"
  param {
    lr_mult: 1
    decay_mult: 1
  }
  param {
    lr_mult: 2
    decay_mult: 0
  }
  convolution_param {
    num_output: 256
    pad: 2
    kernel_size: 5
    group: 2
    weight_filler {
      type: "gaussian"
      std: 0.01
    }
    bias_filler {
      type: "constant"
      value: 1
    }
  }
}
layer {
  name: "relu2"
  type: "ReLU"
  bottom: "conv2"
  top: "conv2"
}
layer {
  name: "pool2"
  type: "Pooling"
  bottom: "conv2"
  top: "pool2"
  pooling_param {
    pool: MAX
    kernel_size: 3
    stride: 2
  }
}
layer {
  name: "norm2"
  type: "LRN"
  bottom: "pool2"
  top: "norm2"
  lrn_param {
    local_size: 5
    alpha: 0.0001
    beta: 0.75
  }
}
layer {
  name: "conv3"
  type: "Convolution"
  bottom: "norm2"
  top: "conv3"
  param {
    lr_mult: 1
    decay_mult: 1
  }
  param {
    lr_mult: 2
    decay_mult: 0
  }
  convolution_param {
    num_output: 384
    pad: 1
    kernel_size: 3
    weight_filler {
      type: "gaussian"
      std: 0.01
    }
    bias_filler {
      type: "constant"
      value: 0
    }
  }
}
layer {
  name: "relu3"
  type: "ReLU"
  bottom: "conv3"
  top: "conv3"
}
layer {
  name: "conv4"
  type: "Convolution"
  bottom: "conv3"
  top: "conv4"
  param {
    lr_mult: 1
    decay_mult: 1
  }
  param {
    lr_mult: 2
    decay_mult: 0
  }
  convolution_param {
    num_output: 384
    pad: 1
    kernel_size: 3
    group: 2
    weight_filler {
      type: "gaussian"
      std: 0.01
    }
    bias_filler {
      type: "constant"
      value: 1
    }
  }
}
layer {
  name: "relu4"
  type: "ReLU"
  bottom: "conv4"
  top: "conv4"
}
layer {
  name: "conv5"
  type: "Convolution"
  bottom: "conv4"
  top: "conv5"
  param {
    lr_mult: 1
    decay_mult: 1
  }
  param {
    lr_mult: 2
    decay_mult: 0
  }
  convolution_param {
    num_output: 256
    pad: 1
    kernel_size: 3
    group: 2
    weight_filler {
      type: "gaussian"
      std: 0.01
    }
    bias_filler {
      type: "constant"
      value: 1
    }
  }
}
layer {
  name: "relu5"
  type: "ReLU"
  bottom: "conv5"
  top: "conv5"
}
layer {
  name: "pool5"
  type: "Pooling"
  bottom: "conv5"
  top: "pool5"
  pooling_param {
    pool: MAX
    kernel_size: 3
    stride: 2
  }
}
layer {
  name: "fc6"
  type: "InnerProduct"
  bottom: "pool5"
  top: "fc6"
  param {
    lr_mult: 1
    decay_mult: 1
  }
  param {
    lr_mult: 2
    decay_mult: 0
  }
  inner_product_param {
    num_output: 4096
    weight_filler {
      type: "gaussian"
      std: 0.005
    }
    bias_filler {
      type: "constant"
      value: 1
    }
  }
}
layer {
  name: "relu6"
  type: "ReLU"
  bottom: "fc6"
  top: "fc6"
}
layer {
  name: "drop6"
  type: "Dropout"
  bottom: "fc6"
  top: "fc6"
  dropout_param {
    dropout_ratio: 0.5
  }
}
layer {
  name: "fc7"
  type: "InnerProduct"
  bottom: "fc6"
  top: "fc7"
  param {
    lr_mult: 1
    decay_mult: 1
  }
  param {
    lr_mult: 2
    decay_mult: 0
  }
  inner_product_param {
    num_output: 4096
    weight_filler {
      type: "gaussian"
      std: 0.005
    }
    bias_filler {
      type: "constant"
      value: 1
    }
  }
}
layer {
  name: "relu7"
  type: "ReLU"
  bottom: "fc7"
  top: "fc7"
}
layer {
  name: "drop7"
  type: "Dropout"
  bottom: "fc7"
  top: "fc7"
  dropout_param {
    dropout_ratio: 0.5
  }
}
layer {
  name: "fc8"
  type: "InnerProduct"
  bottom: "fc7"
  top: "fc8"
  param {
    lr_mult: 1
    decay_mult: 1
  }
  param {
    lr_mult: 2
    decay_mult: 0
  }
  inner_product_param {
    num_output: 2
    weight_filler {
      type: "gaussian"
      std: 0.01
    }
    bias_filler {
      type: "constant"
      value: 0
    }
  }
}
layer {
  name: "loss"
  type: "SoftmaxWithLoss"
  bottom: "fc8"
  bottom: "label"
  top: "loss"
}
I1007 22:16:58.614744  4889 layer_factory.hpp:77] Creating layer data
I1007 22:16:58.614841  4889 db_lmdb.cpp:35] Opened lmdb input/UFPR04/train_lmdb
I1007 22:16:58.614853  4889 net.cpp:84] Creating Layer data
I1007 22:16:58.614877  4889 net.cpp:380] data -> data
I1007 22:16:58.614886  4889 net.cpp:380] data -> label
I1007 22:16:58.614892  4889 data_transformer.cpp:25] Loading mean file from: input/UFPR04/mean.binaryproto
I1007 22:16:58.616235  4889 data_layer.cpp:45] output data size: 64,3,70,70
I1007 22:16:58.624161  4889 net.cpp:122] Setting up data
I1007 22:16:58.624182  4889 net.cpp:129] Top shape: 64 3 70 70 (940800)
I1007 22:16:58.624187  4889 net.cpp:129] Top shape: 64 (64)
I1007 22:16:58.624191  4889 net.cpp:137] Memory required for data: 3763456
I1007 22:16:58.624195  4889 layer_factory.hpp:77] Creating layer conv1
I1007 22:16:58.624239  4889 net.cpp:84] Creating Layer conv1
I1007 22:16:58.624244  4889 net.cpp:406] conv1 <- data
I1007 22:16:58.624271  4889 net.cpp:380] conv1 -> conv1
I1007 22:16:58.625551  4889 net.cpp:122] Setting up conv1
I1007 22:16:58.625569  4889 net.cpp:129] Top shape: 64 96 15 15 (1382400)
I1007 22:16:58.625573  4889 net.cpp:137] Memory required for data: 9293056
I1007 22:16:58.625600  4889 layer_factory.hpp:77] Creating layer relu1
I1007 22:16:58.625624  4889 net.cpp:84] Creating Layer relu1
I1007 22:16:58.625644  4889 net.cpp:406] relu1 <- conv1
I1007 22:16:58.625650  4889 net.cpp:367] relu1 -> conv1 (in-place)
I1007 22:16:58.625661  4889 net.cpp:122] Setting up relu1
I1007 22:16:58.625668  4889 net.cpp:129] Top shape: 64 96 15 15 (1382400)
I1007 22:16:58.625671  4889 net.cpp:137] Memory required for data: 14822656
I1007 22:16:58.625675  4889 layer_factory.hpp:77] Creating layer pool1
I1007 22:16:58.625681  4889 net.cpp:84] Creating Layer pool1
I1007 22:16:58.625685  4889 net.cpp:406] pool1 <- conv1
I1007 22:16:58.625691  4889 net.cpp:380] pool1 -> pool1
I1007 22:16:58.625727  4889 net.cpp:122] Setting up pool1
I1007 22:16:58.625735  4889 net.cpp:129] Top shape: 64 96 7 7 (301056)
I1007 22:16:58.625741  4889 net.cpp:137] Memory required for data: 16026880
I1007 22:16:58.625744  4889 layer_factory.hpp:77] Creating layer norm1
I1007 22:16:58.625767  4889 net.cpp:84] Creating Layer norm1
I1007 22:16:58.625787  4889 net.cpp:406] norm1 <- pool1
I1007 22:16:58.625792  4889 net.cpp:380] norm1 -> norm1
I1007 22:16:58.625895  4889 net.cpp:122] Setting up norm1
I1007 22:16:58.625902  4889 net.cpp:129] Top shape: 64 96 7 7 (301056)
I1007 22:16:58.625906  4889 net.cpp:137] Memory required for data: 17231104
I1007 22:16:58.625910  4889 layer_factory.hpp:77] Creating layer conv2
I1007 22:16:58.625919  4889 net.cpp:84] Creating Layer conv2
I1007 22:16:58.625924  4889 net.cpp:406] conv2 <- norm1
I1007 22:16:58.625931  4889 net.cpp:380] conv2 -> conv2
I1007 22:16:58.630017  4889 net.cpp:122] Setting up conv2
I1007 22:16:58.630045  4889 net.cpp:129] Top shape: 64 256 7 7 (802816)
I1007 22:16:58.630049  4889 net.cpp:137] Memory required for data: 20442368
I1007 22:16:58.630059  4889 layer_factory.hpp:77] Creating layer relu2
I1007 22:16:58.630069  4889 net.cpp:84] Creating Layer relu2
I1007 22:16:58.630074  4889 net.cpp:406] relu2 <- conv2
I1007 22:16:58.630079  4889 net.cpp:367] relu2 -> conv2 (in-place)
I1007 22:16:58.630089  4889 net.cpp:122] Setting up relu2
I1007 22:16:58.630107  4889 net.cpp:129] Top shape: 64 256 7 7 (802816)
I1007 22:16:58.630110  4889 net.cpp:137] Memory required for data: 23653632
I1007 22:16:58.630136  4889 layer_factory.hpp:77] Creating layer pool2
I1007 22:16:58.630154  4889 net.cpp:84] Creating Layer pool2
I1007 22:16:58.630158  4889 net.cpp:406] pool2 <- conv2
I1007 22:16:58.630177  4889 net.cpp:380] pool2 -> pool2
I1007 22:16:58.630230  4889 net.cpp:122] Setting up pool2
I1007 22:16:58.630236  4889 net.cpp:129] Top shape: 64 256 3 3 (147456)
I1007 22:16:58.630240  4889 net.cpp:137] Memory required for data: 24243456
I1007 22:16:58.630244  4889 layer_factory.hpp:77] Creating layer norm2
I1007 22:16:58.630252  4889 net.cpp:84] Creating Layer norm2
I1007 22:16:58.630271  4889 net.cpp:406] norm2 <- pool2
I1007 22:16:58.630290  4889 net.cpp:380] norm2 -> norm2
I1007 22:16:58.630322  4889 net.cpp:122] Setting up norm2
I1007 22:16:58.630328  4889 net.cpp:129] Top shape: 64 256 3 3 (147456)
I1007 22:16:58.630331  4889 net.cpp:137] Memory required for data: 24833280
I1007 22:16:58.630336  4889 layer_factory.hpp:77] Creating layer conv3
I1007 22:16:58.630347  4889 net.cpp:84] Creating Layer conv3
I1007 22:16:58.630352  4889 net.cpp:406] conv3 <- norm2
I1007 22:16:58.630357  4889 net.cpp:380] conv3 -> conv3
I1007 22:16:58.638267  4889 net.cpp:122] Setting up conv3
I1007 22:16:58.638284  4889 net.cpp:129] Top shape: 64 384 3 3 (221184)
I1007 22:16:58.638288  4889 net.cpp:137] Memory required for data: 25718016
I1007 22:16:58.638299  4889 layer_factory.hpp:77] Creating layer relu3
I1007 22:16:58.638327  4889 net.cpp:84] Creating Layer relu3
I1007 22:16:58.638347  4889 net.cpp:406] relu3 <- conv3
I1007 22:16:58.638355  4889 net.cpp:367] relu3 -> conv3 (in-place)
I1007 22:16:58.638361  4889 net.cpp:122] Setting up relu3
I1007 22:16:58.638367  4889 net.cpp:129] Top shape: 64 384 3 3 (221184)
I1007 22:16:58.638370  4889 net.cpp:137] Memory required for data: 26602752
I1007 22:16:58.638375  4889 layer_factory.hpp:77] Creating layer conv4
I1007 22:16:58.638384  4889 net.cpp:84] Creating Layer conv4
I1007 22:16:58.638389  4889 net.cpp:406] conv4 <- conv3
I1007 22:16:58.638397  4889 net.cpp:380] conv4 -> conv4
I1007 22:16:58.644040  4889 net.cpp:122] Setting up conv4
I1007 22:16:58.644060  4889 net.cpp:129] Top shape: 64 384 3 3 (221184)
I1007 22:16:58.644064  4889 net.cpp:137] Memory required for data: 27487488
I1007 22:16:58.644071  4889 layer_factory.hpp:77] Creating layer relu4
I1007 22:16:58.644078  4889 net.cpp:84] Creating Layer relu4
I1007 22:16:58.644083  4889 net.cpp:406] relu4 <- conv4
I1007 22:16:58.644107  4889 net.cpp:367] relu4 -> conv4 (in-place)
I1007 22:16:58.644114  4889 net.cpp:122] Setting up relu4
I1007 22:16:58.644121  4889 net.cpp:129] Top shape: 64 384 3 3 (221184)
I1007 22:16:58.644125  4889 net.cpp:137] Memory required for data: 28372224
I1007 22:16:58.644145  4889 layer_factory.hpp:77] Creating layer conv5
I1007 22:16:58.644172  4889 net.cpp:84] Creating Layer conv5
I1007 22:16:58.644178  4889 net.cpp:406] conv5 <- conv4
I1007 22:16:58.644186  4889 net.cpp:380] conv5 -> conv5
I1007 22:16:58.649073  4889 net.cpp:122] Setting up conv5
I1007 22:16:58.649093  4889 net.cpp:129] Top shape: 64 256 3 3 (147456)
I1007 22:16:58.649097  4889 net.cpp:137] Memory required for data: 28962048
I1007 22:16:58.649121  4889 layer_factory.hpp:77] Creating layer relu5
I1007 22:16:58.649128  4889 net.cpp:84] Creating Layer relu5
I1007 22:16:58.649134  4889 net.cpp:406] relu5 <- conv5
I1007 22:16:58.649140  4889 net.cpp:367] relu5 -> conv5 (in-place)
I1007 22:16:58.649147  4889 net.cpp:122] Setting up relu5
I1007 22:16:58.649169  4889 net.cpp:129] Top shape: 64 256 3 3 (147456)
I1007 22:16:58.649175  4889 net.cpp:137] Memory required for data: 29551872
I1007 22:16:58.649178  4889 layer_factory.hpp:77] Creating layer pool5
I1007 22:16:58.649184  4889 net.cpp:84] Creating Layer pool5
I1007 22:16:58.649188  4889 net.cpp:406] pool5 <- conv5
I1007 22:16:58.649194  4889 net.cpp:380] pool5 -> pool5
I1007 22:16:58.649262  4889 net.cpp:122] Setting up pool5
I1007 22:16:58.649287  4889 net.cpp:129] Top shape: 64 256 1 1 (16384)
I1007 22:16:58.649291  4889 net.cpp:137] Memory required for data: 29617408
I1007 22:16:58.649294  4889 layer_factory.hpp:77] Creating layer fc6
I1007 22:16:58.649305  4889 net.cpp:84] Creating Layer fc6
I1007 22:16:58.649310  4889 net.cpp:406] fc6 <- pool5
I1007 22:16:58.649317  4889 net.cpp:380] fc6 -> fc6
I1007 22:16:58.659255  4889 net.cpp:122] Setting up fc6
I1007 22:16:58.659274  4889 net.cpp:129] Top shape: 64 4096 (262144)
I1007 22:16:58.659284  4889 net.cpp:137] Memory required for data: 30665984
I1007 22:16:58.659291  4889 layer_factory.hpp:77] Creating layer relu6
I1007 22:16:58.659301  4889 net.cpp:84] Creating Layer relu6
I1007 22:16:58.659304  4889 net.cpp:406] relu6 <- fc6
I1007 22:16:58.659337  4889 net.cpp:367] relu6 -> fc6 (in-place)
I1007 22:16:58.659344  4889 net.cpp:122] Setting up relu6
I1007 22:16:58.659370  4889 net.cpp:129] Top shape: 64 4096 (262144)
I1007 22:16:58.659373  4889 net.cpp:137] Memory required for data: 31714560
I1007 22:16:58.659392  4889 layer_factory.hpp:77] Creating layer drop6
I1007 22:16:58.659399  4889 net.cpp:84] Creating Layer drop6
I1007 22:16:58.659415  4889 net.cpp:406] drop6 <- fc6
I1007 22:16:58.659420  4889 net.cpp:367] drop6 -> fc6 (in-place)
I1007 22:16:58.659442  4889 net.cpp:122] Setting up drop6
I1007 22:16:58.659461  4889 net.cpp:129] Top shape: 64 4096 (262144)
I1007 22:16:58.659463  4889 net.cpp:137] Memory required for data: 32763136
I1007 22:16:58.659466  4889 layer_factory.hpp:77] Creating layer fc7
I1007 22:16:58.659473  4889 net.cpp:84] Creating Layer fc7
I1007 22:16:58.659477  4889 net.cpp:406] fc7 <- fc6
I1007 22:16:58.659482  4889 net.cpp:380] fc7 -> fc7
I1007 22:16:58.785758  4889 net.cpp:122] Setting up fc7
I1007 22:16:58.785786  4889 net.cpp:129] Top shape: 64 4096 (262144)
I1007 22:16:58.785789  4889 net.cpp:137] Memory required for data: 33811712
I1007 22:16:58.785795  4889 layer_factory.hpp:77] Creating layer relu7
I1007 22:16:58.785825  4889 net.cpp:84] Creating Layer relu7
I1007 22:16:58.785828  4889 net.cpp:406] relu7 <- fc7
I1007 22:16:58.785835  4889 net.cpp:367] relu7 -> fc7 (in-place)
I1007 22:16:58.785859  4889 net.cpp:122] Setting up relu7
I1007 22:16:58.785866  4889 net.cpp:129] Top shape: 64 4096 (262144)
I1007 22:16:58.785887  4889 net.cpp:137] Memory required for data: 34860288
I1007 22:16:58.785890  4889 layer_factory.hpp:77] Creating layer drop7
I1007 22:16:58.785912  4889 net.cpp:84] Creating Layer drop7
I1007 22:16:58.785917  4889 net.cpp:406] drop7 <- fc7
I1007 22:16:58.785943  4889 net.cpp:367] drop7 -> fc7 (in-place)
I1007 22:16:58.785996  4889 net.cpp:122] Setting up drop7
I1007 22:16:58.786002  4889 net.cpp:129] Top shape: 64 4096 (262144)
I1007 22:16:58.786005  4889 net.cpp:137] Memory required for data: 35908864
I1007 22:16:58.786008  4889 layer_factory.hpp:77] Creating layer fc8
I1007 22:16:58.786017  4889 net.cpp:84] Creating Layer fc8
I1007 22:16:58.786021  4889 net.cpp:406] fc8 <- fc7
I1007 22:16:58.786027  4889 net.cpp:380] fc8 -> fc8
I1007 22:16:58.786237  4889 net.cpp:122] Setting up fc8
I1007 22:16:58.786255  4889 net.cpp:129] Top shape: 64 2 (128)
I1007 22:16:58.786259  4889 net.cpp:137] Memory required for data: 35909376
I1007 22:16:58.786264  4889 layer_factory.hpp:77] Creating layer loss
I1007 22:16:58.786273  4889 net.cpp:84] Creating Layer loss
I1007 22:16:58.786276  4889 net.cpp:406] loss <- fc8
I1007 22:16:58.786281  4889 net.cpp:406] loss <- label
I1007 22:16:58.786307  4889 net.cpp:380] loss -> loss
I1007 22:16:58.786314  4889 layer_factory.hpp:77] Creating layer loss
…
I1007 22:16:58.786906  4889 solver.cpp:172] Creating test net (#0) specified by net file: caffe_models/UFPR04/caffenet_train_val_1.prototxt
I1007 22:16:58.786936  4889 net.cpp:294] The NetState phase (1) differed from the phase (0) specified by a rule in layer data
I1007 22:16:58.787111  4889 net.cpp:51] Initializing net from parameters: 
name: "CaffeNet"
state {
  phase: TEST
}
layer {
  name: "data"
  type: "Data"
  top: "data"
  top: "label"
  include {
    phase: TEST
  }
  transform_param {
    mirror: false
    crop_size: 70
    mean_file: "input/UFPR04/mean.binaryproto"
  }
  data_param {
    source: "input/UFPR04/validation_lmdb"
    batch_size: 100
    backend: LMDB
  }
}
layer {
  name: "conv1"
  type: "Convolution"
  bottom: "data"
  top: "conv1"
  param {
    lr_mult: 1
    decay_mult: 1
  }
  param {
    lr_mult: 2
    decay_mult: 0
  }
  convolution_param {
    num_output: 96
    kernel_size: 11
    stride: 4
    weight_filler {
      type: "gaussian"
      std: 0.01
    }
    bias_filler {
      type: "constant"
      value: 0
    }
  }
}
layer {
  name: "relu1"
  type: "ReLU"
  bottom: "conv1"
  top: "conv1"
}
layer {
  name: "pool1"
  type: "Pooling"
  bottom: "conv1"
  top: "pool1"
  pooling_param {
    pool: MAX
    kernel_size: 3
    stride: 2
  }
}
layer {
  name: "norm1"
  type: "LRN"
  bottom: "pool1"
  top: "norm1"
  lrn_param {
    local_size: 5
    alpha: 0.0001
    beta: 0.75
  }
}
layer {
  name: "conv2"
  type: "Convolution"
  bottom: "norm1"
  top: "conv2"
  param {
    lr_mult: 1
    decay_mult: 1
  }
  param {
    lr_mult: 2
    decay_mult: 0
  }
  convolution_param {
    num_output: 256
    pad: 2
    kernel_size: 5
    group: 2
    weight_filler {
      type: "gaussian"
      std: 0.01
    }
    bias_filler {
      type: "constant"
      value: 1
    }
  }
}
layer {
  name: "relu2"
  type: "ReLU"
  bottom: "conv2"
  top: "conv2"
}
layer {
  name: "pool2"
  type: "Pooling"
  bottom: "conv2"
  top: "pool2"
  pooling_param {
    pool: MAX
    kernel_size: 3
    stride: 2
  }
}
layer {
  name: "norm2"
  type: "LRN"
  bottom: "pool2"
  top: "norm2"
  lrn_param {
    local_size: 5
    alpha: 0.0001
    beta: 0.75
  }
}
layer {
  name: "conv3"
  type: "Convolution"
  bottom: "norm2"
  top: "conv3"
  param {
    lr_mult: 1
    decay_mult: 1
  }
  param {
    lr_mult: 2
    decay_mult: 0
  }
  convolution_param {
    num_output: 384
    pad: 1
    kernel_size: 3
    weight_filler {
      type: "gaussian"
      std: 0.01
    }
    bias_filler {
      type: "constant"
      value: 0
    }
  }
}
layer {
  name: "relu3"
  type: "ReLU"
  bottom: "conv3"
  top: "conv3"
}
layer {
  name: "conv4"
  type: "Convolution"
  bottom: "conv3"
  top: "conv4"
  param {
    lr_mult: 1
    decay_mult: 1
  }
  param {
    lr_mult: 2
    decay_mult: 0
  }
  convolution_param {
    num_output: 384
    pad: 1
    kernel_size: 3
    group: 2
    weight_filler {
      type: "gaussian"
      std: 0.01
    }
    bias_filler {
      type: "constant"
      value: 1
    }
  }
}
layer {
  name: "relu4"
  type: "ReLU"
  bottom: "conv4"
  top: "conv4"
}
layer {
  name: "conv5"
  type: "Convolution"
  bottom: "conv4"
  top: "conv5"
  param {
    lr_mult: 1
    decay_mult: 1
  }
  param {
    lr_mult: 2
    decay_mult: 0
  }
  convolution_param {
    num_output: 256
    pad: 1
    kernel_size: 3
    group: 2
    weight_filler {
      type: "gaussian"
      std: 0.01
    }
    bias_filler {
      type: "constant"
      value: 1
    }
  }
}
layer {
  name: "relu5"
  type: "ReLU"
  bottom: "conv5"
  top: "conv5"
}
layer {
  name: "pool5"
  type: "Pooling"
  bottom: "conv5"
  top: "pool5"
  pooling_param {
    pool: MAX
    kernel_size: 3
    stride: 2
  }
}
layer {
  name: "fc6"
  type: "InnerProduct"
  bottom: "pool5"
  top: "fc6"
  param {
    lr_mult: 1
    decay_mult: 1
  }
  param {
    lr_mult: 2
    decay_mult: 0
  }
  inner_product_param {
    num_output: 4096
    weight_filler {
      type: "gaussian"
      std: 0.005
    }
    bias_filler {
      type: "constant"
      value: 1
    }
  }
}
layer {
  name: "relu6"
  type: "ReLU"
  bottom: "fc6"
  top: "fc6"
}
layer {
  name: "drop6"
  type: "Dropout"
  bottom: "fc6"
  top: "fc6"
  dropout_param {
    dropout_ratio: 0.5
  }
}
layer {
  name: "fc7"
  type: "InnerProduct"
  bottom: "fc6"
  top: "fc7"
  param {
    lr_mult: 1
    decay_mult: 1
  }
  param {
    lr_mult: 2
    decay_mult: 0
  }
  inner_product_param {
    num_output: 4096
    weight_filler {
      type: "gaussian"
      std: 0.005
    }
    bias_filler {
      type: "constant"
      value: 1
    }
  }
}
layer {
  name: "relu7"
  type: "ReLU"
  bottom: "fc7"
  top: "fc7"
}
layer {
  name: "drop7"
  type: "Dropout"
  bottom: "fc7"
  top: "fc7"
  dropout_param {
    dropout_ratio: 0.5
  }
}
layer {
  name: "fc8"
  type: "InnerProduct"
  bottom: "fc7"
  top: "fc8"
  param {
    lr_mult: 1
    decay_mult: 1
  }
  param {
    lr_mult: 2
    decay_mult: 0
  }
  inner_product_param {
    num_output: 2
    weight_filler {
      type: "gaussian"
      std: 0.01
    }
    bias_filler {
      type: "constant"
      value: 0
    }
  }
}
layer {
  name: "accuracy"
  type: "Accuracy"
  bottom: "fc8"
  bottom: "label"
  top: "accuracy"
  include {
    phase: TEST
  }
}
layer {
  name: "loss"
  type: "SoftmaxWithLoss"
  bottom: "fc8"
  bottom: "label"
  top: "loss"
}
I1007 22:16:58.787315  4889 layer_factory.hpp:77] Creating layer data
I1007 22:16:58.787390  4889 db_lmdb.cpp:35] Opened lmdb input/UFPR04/validation_lmdb
I1007 22:16:58.787412  4889 net.cpp:84] Creating Layer data
I1007 22:16:58.787421  4889 net.cpp:380] data -> data
I1007 22:16:58.787430  4889 net.cpp:380] data -> label
I1007 22:16:58.787437  4889 data_transformer.cpp:25] Loading mean file from: input/UFPR04/mean.binaryproto
I1007 22:16:58.787693  4889 data_layer.cpp:45] output data size: 100,3,70,70
I1007 22:16:58.799659  4889 net.cpp:122] Setting up data
I1007 22:16:58.799680  4889 net.cpp:129] Top shape: 100 3 70 70 (1470000)
I1007 22:16:58.799685  4889 net.cpp:129] Top shape: 100 (100)
I1007 22:16:58.799688  4889 net.cpp:137] Memory required for data: 5880400
I1007 22:16:58.799692  4889 layer_factory.hpp:77] Creating layer label_data_1_split
I1007 22:16:58.799703  4889 net.cpp:84] Creating Layer label_data_1_split
I1007 22:16:58.799707  4889 net.cpp:406] label_data_1_split <- label
I1007 22:16:58.799715  4889 net.cpp:380] label_data_1_split -> label_data_1_split_0
I1007 22:16:58.799724  4889 net.cpp:380] label_data_1_split -> label_data_1_split_1
I1007 22:16:58.799811  4889 net.cpp:122] Setting up label_data_1_split
I1007 22:16:58.799820  4889 net.cpp:129] Top shape: 100 (100)
I1007 22:16:58.799824  4889 net.cpp:129] Top shape: 100 (100)
I1007 22:16:58.799840  4889 net.cpp:137] Memory required for data: 5881200
I1007 22:16:58.799844  4889 layer_factory.hpp:77] Creating layer conv1
I1007 22:16:58.799872  4889 net.cpp:84] Creating Layer conv1
I1007 22:16:58.799876  4889 net.cpp:406] conv1 <- data
I1007 22:16:58.799896  4889 net.cpp:380] conv1 -> conv1
I1007 22:16:58.800755  4889 net.cpp:122] Setting up conv1
I1007 22:16:58.800765  4889 net.cpp:129] Top shape: 100 96 15 15 (2160000)
I1007 22:16:58.800768  4889 net.cpp:137] Memory required for data: 14521200
I1007 22:16:58.800777  4889 layer_factory.hpp:77] Creating layer relu1
I1007 22:16:58.800786  4889 net.cpp:84] Creating Layer relu1
I1007 22:16:58.800801  4889 net.cpp:406] relu1 <- conv1
I1007 22:16:58.800806  4889 net.cpp:367] relu1 -> conv1 (in-place)
I1007 22:16:58.800812  4889 net.cpp:122] Setting up relu1
I1007 22:16:58.800818  4889 net.cpp:129] Top shape: 100 96 15 15 (2160000)
I1007 22:16:58.800822  4889 net.cpp:137] Memory required for data: 23161200
I1007 22:16:58.800825  4889 layer_factory.hpp:77] Creating layer pool1
I1007 22:16:58.800832  4889 net.cpp:84] Creating Layer pool1
I1007 22:16:58.800835  4889 net.cpp:406] pool1 <- conv1
I1007 22:16:58.800842  4889 net.cpp:380] pool1 -> pool1
I1007 22:16:58.801770  4889 net.cpp:122] Setting up pool1
I1007 22:16:58.801777  4889 net.cpp:129] Top shape: 100 96 7 7 (470400)
I1007 22:16:58.801779  4889 net.cpp:137] Memory required for data: 25042800
I1007 22:16:58.801784  4889 layer_factory.hpp:77] Creating layer norm1
I1007 22:16:58.801795  4889 net.cpp:84] Creating Layer norm1
I1007 22:16:58.801800  4889 net.cpp:406] norm1 <- pool1
I1007 22:16:58.801803  4889 net.cpp:380] norm1 -> norm1
I1007 22:16:58.801846  4889 net.cpp:122] Setting up norm1
I1007 22:16:58.801865  4889 net.cpp:129] Top shape: 100 96 7 7 (470400)
I1007 22:16:58.801868  4889 net.cpp:137] Memory required for data: 26924400
I1007 22:16:58.801872  4889 layer_factory.hpp:77] Creating layer conv2
I1007 22:16:58.801894  4889 net.cpp:84] Creating Layer conv2
I1007 22:16:58.801898  4889 net.cpp:406] conv2 <- norm1
I1007 22:16:58.801904  4889 net.cpp:380] conv2 -> conv2
I1007 22:16:58.805853  4889 net.cpp:122] Setting up conv2
I1007 22:16:58.805868  4889 net.cpp:129] Top shape: 100 256 7 7 (1254400)
I1007 22:16:58.805871  4889 net.cpp:137] Memory required for data: 31942000
I1007 22:16:58.805893  4889 layer_factory.hpp:77] Creating layer relu2
I1007 22:16:58.805902  4889 net.cpp:84] Creating Layer relu2
I1007 22:16:58.805909  4889 net.cpp:406] relu2 <- conv2
I1007 22:16:58.805915  4889 net.cpp:367] relu2 -> conv2 (in-place)
I1007 22:16:58.805923  4889 net.cpp:122] Setting up relu2
I1007 22:16:58.805928  4889 net.cpp:129] Top shape: 100 256 7 7 (1254400)
I1007 22:16:58.805930  4889 net.cpp:137] Memory required for data: 36959600
I1007 22:16:58.805933  4889 layer_factory.hpp:77] Creating layer pool2
I1007 22:16:58.805958  4889 net.cpp:84] Creating Layer pool2
I1007 22:16:58.805961  4889 net.cpp:406] pool2 <- conv2
I1007 22:16:58.805966  4889 net.cpp:380] pool2 -> pool2
I1007 22:16:58.806042  4889 net.cpp:122] Setting up pool2
I1007 22:16:58.806048  4889 net.cpp:129] Top shape: 100 256 3 3 (230400)
I1007 22:16:58.806066  4889 net.cpp:137] Memory required for data: 37881200
I1007 22:16:58.806068  4889 layer_factory.hpp:77] Creating layer norm2
I1007 22:16:58.806075  4889 net.cpp:84] Creating Layer norm2
I1007 22:16:58.806079  4889 net.cpp:406] norm2 <- pool2
I1007 22:16:58.806087  4889 net.cpp:380] norm2 -> norm2
I1007 22:16:58.806119  4889 net.cpp:122] Setting up norm2
I1007 22:16:58.806124  4889 net.cpp:129] Top shape: 100 256 3 3 (230400)
I1007 22:16:58.806126  4889 net.cpp:137] Memory required for data: 38802800
I1007 22:16:58.806130  4889 layer_factory.hpp:77] Creating layer conv3
I1007 22:16:58.806143  4889 net.cpp:84] Creating Layer conv3
I1007 22:16:58.806146  4889 net.cpp:406] conv3 <- norm2
I1007 22:16:58.806151  4889 net.cpp:380] conv3 -> conv3
I1007 22:16:58.813855  4889 net.cpp:122] Setting up conv3
I1007 22:16:58.813879  4889 net.cpp:129] Top shape: 100 384 3 3 (345600)
I1007 22:16:58.813882  4889 net.cpp:137] Memory required for data: 40185200
I1007 22:16:58.813904  4889 layer_factory.hpp:77] Creating layer relu3
I1007 22:16:58.813953  4889 net.cpp:84] Creating Layer relu3
I1007 22:16:58.813957  4889 net.cpp:406] relu3 <- conv3
I1007 22:16:58.813963  4889 net.cpp:367] relu3 -> conv3 (in-place)
I1007 22:16:58.813971  4889 net.cpp:122] Setting up relu3
I1007 22:16:58.813977  4889 net.cpp:129] Top shape: 100 384 3 3 (345600)
I1007 22:16:58.813979  4889 net.cpp:137] Memory required for data: 41567600
I1007 22:16:58.813982  4889 layer_factory.hpp:77] Creating layer conv4
I1007 22:16:58.813992  4889 net.cpp:84] Creating Layer conv4
I1007 22:16:58.813995  4889 net.cpp:406] conv4 <- conv3
I1007 22:16:58.814000  4889 net.cpp:380] conv4 -> conv4
I1007 22:16:58.820981  4889 net.cpp:122] Setting up conv4
I1007 22:16:58.820998  4889 net.cpp:129] Top shape: 100 384 3 3 (345600)
I1007 22:16:58.821002  4889 net.cpp:137] Memory required for data: 42950000
I1007 22:16:58.821027  4889 layer_factory.hpp:77] Creating layer relu4
I1007 22:16:58.821033  4889 net.cpp:84] Creating Layer relu4
I1007 22:16:58.821036  4889 net.cpp:406] relu4 <- conv4
I1007 22:16:58.821043  4889 net.cpp:367] relu4 -> conv4 (in-place)
I1007 22:16:58.821048  4889 net.cpp:122] Setting up relu4
I1007 22:16:58.821050  4889 net.cpp:129] Top shape: 100 384 3 3 (345600)
I1007 22:16:58.821053  4889 net.cpp:137] Memory required for data: 44332400
I1007 22:16:58.821055  4889 layer_factory.hpp:77] Creating layer conv5
I1007 22:16:58.821061  4889 net.cpp:84] Creating Layer conv5
I1007 22:16:58.821064  4889 net.cpp:406] conv5 <- conv4
I1007 22:16:58.821084  4889 net.cpp:380] conv5 -> conv5
I1007 22:16:58.825100  4889 net.cpp:122] Setting up conv5
I1007 22:16:58.825112  4889 net.cpp:129] Top shape: 100 256 3 3 (230400)
I1007 22:16:58.825115  4889 net.cpp:137] Memory required for data: 45254000
I1007 22:16:58.825121  4889 layer_factory.hpp:77] Creating layer relu5
I1007 22:16:58.825126  4889 net.cpp:84] Creating Layer relu5
I1007 22:16:58.825129  4889 net.cpp:406] relu5 <- conv5
I1007 22:16:58.825137  4889 net.cpp:367] relu5 -> conv5 (in-place)
I1007 22:16:58.825145  4889 net.cpp:122] Setting up relu5
I1007 22:16:58.825150  4889 net.cpp:129] Top shape: 100 256 3 3 (230400)
I1007 22:16:58.825153  4889 net.cpp:137] Memory required for data: 46175600
I1007 22:16:58.825156  4889 layer_factory.hpp:77] Creating layer pool5
I1007 22:16:58.825163  4889 net.cpp:84] Creating Layer pool5
I1007 22:16:58.825168  4889 net.cpp:406] pool5 <- conv5
I1007 22:16:58.825173  4889 net.cpp:380] pool5 -> pool5
I1007 22:16:58.825212  4889 net.cpp:122] Setting up pool5
I1007 22:16:58.825217  4889 net.cpp:129] Top shape: 100 256 1 1 (25600)
I1007 22:16:58.825220  4889 net.cpp:137] Memory required for data: 46278000
I1007 22:16:58.825222  4889 layer_factory.hpp:77] Creating layer fc6
I1007 22:16:58.825245  4889 net.cpp:84] Creating Layer fc6
I1007 22:16:58.825248  4889 net.cpp:406] fc6 <- pool5
I1007 22:16:58.825253  4889 net.cpp:380] fc6 -> fc6
I1007 22:16:58.835263  4889 net.cpp:122] Setting up fc6
I1007 22:16:58.835325  4889 net.cpp:129] Top shape: 100 4096 (409600)
I1007 22:16:58.835348  4889 net.cpp:137] Memory required for data: 47916400
I1007 22:16:58.835355  4889 layer_factory.hpp:77] Creating layer relu6
I1007 22:16:58.835376  4889 net.cpp:84] Creating Layer relu6
I1007 22:16:58.835379  4889 net.cpp:406] relu6 <- fc6
I1007 22:16:58.835387  4889 net.cpp:367] relu6 -> fc6 (in-place)
I1007 22:16:58.835397  4889 net.cpp:122] Setting up relu6
I1007 22:16:58.835402  4889 net.cpp:129] Top shape: 100 4096 (409600)
I1007 22:16:58.835403  4889 net.cpp:137] Memory required for data: 49554800
I1007 22:16:58.835407  4889 layer_factory.hpp:77] Creating layer drop6
I1007 22:16:58.835410  4889 net.cpp:84] Creating Layer drop6
I1007 22:16:58.835412  4889 net.cpp:406] drop6 <- fc6
I1007 22:16:58.835417  4889 net.cpp:367] drop6 -> fc6 (in-place)
I1007 22:16:58.835451  4889 net.cpp:122] Setting up drop6
I1007 22:16:58.835456  4889 net.cpp:129] Top shape: 100 4096 (409600)
I1007 22:16:58.835458  4889 net.cpp:137] Memory required for data: 51193200
I1007 22:16:58.835460  4889 layer_factory.hpp:77] Creating layer fc7
I1007 22:16:58.835466  4889 net.cpp:84] Creating Layer fc7
I1007 22:16:58.835469  4889 net.cpp:406] fc7 <- fc6
I1007 22:16:58.835472  4889 net.cpp:380] fc7 -> fc7
I1007 22:16:58.969769  4889 net.cpp:122] Setting up fc7
I1007 22:16:58.969785  4889 net.cpp:129] Top shape: 100 4096 (409600)
I1007 22:16:58.969787  4889 net.cpp:137] Memory required for data: 52831600
I1007 22:16:58.969794  4889 layer_factory.hpp:77] Creating layer relu7
I1007 22:16:58.969817  4889 net.cpp:84] Creating Layer relu7
I1007 22:16:58.969821  4889 net.cpp:406] relu7 <- fc7
I1007 22:16:58.969825  4889 net.cpp:367] relu7 -> fc7 (in-place)
I1007 22:16:58.969830  4889 net.cpp:122] Setting up relu7
I1007 22:16:58.969846  4889 net.cpp:129] Top shape: 100 4096 (409600)
I1007 22:16:58.969848  4889 net.cpp:137] Memory required for data: 54470000
I1007 22:16:58.969851  4889 layer_factory.hpp:77] Creating layer drop7
I1007 22:16:58.969872  4889 net.cpp:84] Creating Layer drop7
I1007 22:16:58.969877  4889 net.cpp:406] drop7 <- fc7
I1007 22:16:58.969899  4889 net.cpp:367] drop7 -> fc7 (in-place)
I1007 22:16:58.969961  4889 net.cpp:122] Setting up drop7
I1007 22:16:58.969966  4889 net.cpp:129] Top shape: 100 4096 (409600)
I1007 22:16:58.969969  4889 net.cpp:137] Memory required for data: 56108400
I1007 22:16:58.969970  4889 layer_factory.hpp:77] Creating layer fc8
I1007 22:16:58.969975  4889 net.cpp:84] Creating Layer fc8
I1007 22:16:58.969979  4889 net.cpp:406] fc8 <- fc7
I1007 22:16:58.970001  4889 net.cpp:380] fc8 -> fc8
I1007 22:16:58.970230  4889 net.cpp:122] Setting up fc8
I1007 22:16:58.970237  4889 net.cpp:129] Top shape: 100 2 (200)
I1007 22:16:58.970238  4889 net.cpp:137] Memory required for data: 56109200
I1007 22:16:58.970242  4889 layer_factory.hpp:77] Creating layer fc8_fc8_0_split
I1007 22:16:58.970247  4889 net.cpp:84] Creating Layer fc8_fc8_0_split
I1007 22:16:58.970249  4889 net.cpp:406] fc8_fc8_0_split <- fc8
I1007 22:16:58.970273  4889 net.cpp:380] fc8_fc8_0_split -> fc8_fc8_0_split_0
I1007 22:16:58.970276  4889 net.cpp:380] fc8_fc8_0_split -> fc8_fc8_0_split_1
I1007 22:16:58.970335  4889 net.cpp:122] Setting up fc8_fc8_0_split
I1007 22:16:58.970340  4889 net.cpp:129] Top shape: 100 2 (200)
I1007 22:16:58.970361  4889 net.cpp:129] Top shape: 100 2 (200)
I1007 22:16:58.970365  4889 net.cpp:137] Memory required for data: 56110800
I1007 22:16:58.970386  4889 layer_factory.hpp:77] Creating layer accuracy
I1007 22:16:58.970393  4889 net.cpp:84] Creating Layer accuracy
I1007 22:16:58.970396  4889 net.cpp:406] accuracy <- fc8_fc8_0_split_0
I1007 22:16:58.970399  4889 net.cpp:406] accuracy <- label_data_1_split_0
I1007 22:16:58.970403  4889 net.cpp:380] accuracy -> accuracy
…
